spaceship_titanic/spaceship_titanic_model.pt (torch_old, 2994 bytes, 3 tensors)

fc1.weight f4 [32, 15]
0	0xbc586923	-0.01320866
1	0x39da66ef	0.00041656892
2	0x3da91235	0.08255426
3	0xbe9a2267	-0.30104372
4	0xbdb8ee48	-0.090298235
5	0x3ce37a95	0.027768413
6	0x3c8e421b	0.017365506
7	0xbe64c9e3	-0.22342639
8	0xbea050c1	-0.3131161
9	0x3bae86f8	0.005326148
10	0x3b411e3e	0.0029467489
11	0x3b960bc7	0.0045790407
12	0xbd2b94fd	-0.041890133
13	0x3dbf0561	0.09327198
14	0x3b1a14cb	0.0023510929
15	0xbd832114	-0.064027935
16	0x0015770a	1.971249e-39
17	0xbed66936	-0.41877145
18	0xbe1dbe62	-0.15404657
19	0x3b1842be	0.002323314
20	0xbb61d806	-0.0034461035
21	0xbcdf0d69	-0.027228074
22	0xbd3ae01e	-0.04562389
23	0xbe865a2f	-0.2624068
24	0x3cefe0c7	0.029281987
25	0x3d17d612	0.037069388
26	0xbec5b226	-0.3861248
27	0xbd7b0ef3	-0.061293554
28	0x3dce5bb2	0.10076083
29	0x3ce6a3c3	0.02815426
30	0xbdd338e2	-0.10313584
31	0xbbaa22d2	-0.005192139
32	0xbe94f4a6	-0.29092902
33	0x3dc957bd	0.09831188
34	0x3d55f649	0.05223683
35	0xbdad6e97	-0.08468359
36	0xbdfc4089	-0.123169966
37	0xbe6319a0	-0.22177744
38	0xbe682dbb	-0.22673695
39	0xbe5218ef	-0.20517324
40	0xbc8c8a56	-0.017155807
41	0xbe455498	-0.19270551
42	0x3db1696d	0.086626865
43	0x3e2d64ad	0.16932936
44	0xbd8a2786	-0.0674582
45	0xbeade204	-0.339615
46	0xbb9ea302	-0.0048412094
47	0xbe2761ae	-0.16345856
48	0x3c8d03c5	0.017213712
49	0xbd714ee6	-0.058913134
50	0xbd77a671	-0.060461465
51	0x3ce3ff82	0.027831797
52	0x3c96a73a	0.018390287
53	0xbdeb2186	-0.114810035
54	0x3dbb5fa7	0.091491036
55	0x3e6b16fe	0.2295799
56	0xbe01b61d	-0.12667127
57	0x3dbe90f8	0.09304994
58	0xbe43bcd9	-0.19115008
59	0x3c131622	0.008977445
60	0xbb54e21d	-0.0032483407
61	0x3b043a53	0.0020176366
62	0x3d08bb2c	0.033381626
63	0xbd5a75f6	-0.053335153
64	0xbb1ca655	-0.0023902853
65	0x3b36de80	0.0027903616
66	0xbdb470af	-0.08810555
67	0xbcdf636e	-0.027269091
68	0xbbd4ae79	-0.0064905253
69	0xbc9b95f0	-0.018992394
70	0x3ca1f9b3	0.019772386
71	0xbe00ba2e	-0.12571022
72	0xbc94110a	-0.018074531
73	0xbb065645	-0.0020498198
74	0xbcf4e468	-0.029894069
75	0xbe016498	-0.1263603
76	0xbca5c2a6	-0.020234417
77	0xbd97d5a6	-0.07413797
78	0x3cc68c96	0.024236958
79	0x3c0e40b4	0.008682419
80	0xbeed9e89	-0.46410015
81	0xbe4efea8	-0.20214331
82	0x3d6155c7	0.055013444
83	0xbecc24b7	-0.3987176
84	0x3c95bb53	0.0182778
85	0xbd466f0a	-0.04844574
86	0xbe501723	-0.20321326
87	0xbe10bfbd	-0.14135642
88	0xbe237ed3	-0.15966348
89	0x3e2d0e7c	0.16900057
90	0x3e4113a7	0.18855153
91	0xbd459f82	-0.04824782
92	0xbe768a61	-0.24076225
93	0xbd61d6c3	-0.055136453
94	0x3c953559	0.018213915
95	0x3bd2b1e1	0.006429896
96	0xbcf43caf	-0.029814092
97	0xbcfa3094	-0.030540742
98	0x3d158c61	0.03651083
99	0xbefca32a	-0.49343234
100	0x3e9982fd	0.2998275
101	0xbe8cb071	-0.27478364
102	0xbda8e1e4	-0.0824621
103	0x3d4b686e	0.04966014
104	0xbd65c48c	-0.056095645
105	0x3ebb185a	0.36542016
106	0xbf922de7	-1.1420258
107	0xbda10bf5	-0.07863609
108	0x3e023fb8	0.1271962
109	0x3cfd15f6	0.03089426
110	0x3abff889	0.0014646213
111	0x3e3e8b83	0.18607907
112	0x3e127081	0.1430073
113	0x3d0aa0b5	0.03384467
114	0xbecf823e	-0.40529054
115	0xbe5780ac	-0.21045178
116	0xbe4ec490	-0.2019217
117	0xbdbe9c20	-0.09307122
118	0x3d2bd412	0.041950293
119	0xbe351950	-0.17685437
120	0xbb545f43	-0.0032405413
121	0xba6aad0f	-0.00089521793
122	0xbe421fd4	-0.18957454
123	0xbd80ada2	-0.06283118
124	0xbe8bc98c	-0.27302206
125	0xbe269184	-0.16266447
126	0xbb3ab244	-0.0028487602
127	0xbe5f4f25	-0.21807535
128	0xbcc84675	-0.024447659
129	0xb9a05642	-0.00030581845
130	0xb92ed1f4	-0.00016672147
131	0xb7ab107b	-2.0392463e-05
132	0x3725338c	9.846768e-06
133	0x3dd77e2c	0.10522112
134	0xb4ce221c	-3.8395308e-07
135	0xbd89d0d6	-0.067292854
136	0xbce46dfd	-0.027884478
137	0xbc947a19	-0.018124627
138	0xbcbb74c6	-0.02288283
139	0xbd5d8245	-0.054079313
140	0xba71ed8a	-0.00092288165
141	0xbe078be9	-0.13236965
142	0x3a00559b	0.00048955687
143	0xbc42346b	-0.011853318
144	0x3c829959	0.015942262
145	0xbb9d8e2d	-0.0048082084
146	0xbca633ea	-0.020288426
147	0x3b211a1a	0.0024582208
148	0xba5d0320	-0.00084309466
149	0x3de67a76	0.11253826
150	0xbb90003b	-0.0043945587
151	0x3cf15d0b	0.029463312
152	0x3db8c289	0.0902148
153	0xbb84109f	-0.0040303017
154	0xbce1f284	-0.02758146
155	0xbd1ff8db	-0.039055686
156	0xbc822bd1	-0.015890034
157	0xbb109753	-0.0022062853
158	0xbe1ac0c8	-0.15112603
159	0x3d2dbca1	0.04241622
160	0xbb1adb31	-0.0023629183
161	0xbc11535a	-0.00886997
162	0x3b6ac463	0.0035822622
163	0xbd393106	-0.045212768
164	0xbc1bed78	-0.009517066
165	0x3e5d5061	0.21612693
166	0xbd11f253	-0.03563149
167	0xbdd4deef	-0.10394084
168	0x3e0ac003	0.13549809
169	0xbe691056	-0.22760138
170	0x3c6ff561	0.014645905
171	0xbd7368c8	-0.0594261
172	0xbcf66a78	-0.030080065
173	0xbe1f08dd	-0.15530725
174	0x3e6222de	0.22083613
175	0x3d9c895f	0.07643389
176	0x3dfd6e0b	0.12374505
177	0x3ed13cf8	0.40866828
178	0x3ddda945	0.10823301
179	0x3e3370ca	0.17523494
180	0x3dd2242a	0.10260804
181	0xbe7c2d79	-0.24626721
182	0x3e21eabd	0.15812202
183	0x3dbc30ec	0.091890186
184	0x3d32c103	0.0436411
185	0xbd774087	-0.060364272
186	0x3e8328ed	0.2561716
187	0x3d614ac9	0.05500296
188	0x3e58257e	0.21108052
189	0x3ec86ffb	0.39147934
190	0x3da08fd8	0.07839936
191	0x3e1d9c1b	0.15391581
192	0xbcc9a688	-0.024615541
193	0xbe176842	-0.14785865
194	0x3d9c229e	0.0762379
195	0xbcd568c7	-0.026050938
196	0x3d4e73b3	0.050403308
197	0x3e36f3f0	0.17866492
198	0x3d9186c4	0.07105783
199	0xbe33c3af	-0.17555116
200	0xbe20f4a3	-0.15718322
201	0xbd5d42ed	-0.054018904
202	0xbec083e4	-0.37600625
203	0xbe1ba55c	-0.15199798
204	0x3ed426a2	0.41435724
205	0x392032de	0.00015277739
206	0xbc9077db	-0.017635277
207	0xbe7a0dd9	-0.24419345
208	0xbd822100	-0.063539505
209	0xbdee4383	-0.116339706
210	0xbe2bf244	-0.16791636
211	0x0030b139	4.47168e-39
212	0xbdf63187	-0.12021165
213	0x3c59374e	0.013257815
214	0x3daf21a6	0.0855134
215	0xbd5e4f1c	-0.054274663
216	0xbd782b34	-0.060588077
217	0xbe0f8d10	-0.14018655
218	0xbe55dd5a	-0.2088522
219	0x3e37cc19	0.17948951
220	0xbd41f718	-0.047354788
221	0x3da91976	0.082568094
222	0x3dd5f193	0.10446467
223	0x3e3941bf	0.18091486
224	0xbceace17	-0.028662724
225	0x3b8ce934	0.004300261
226	0x35825e30	9.713167e-07
227	0xbd89ae7b	-0.06722733
228	0xbe0e56a5	-0.1390024
229	0x3cb58e3a	0.022162545
230	0xbd15f7ca	-0.036613263
231	0xbe0cfbe3	-0.13767962
232	0x3ca14b26	0.019689154
233	0xbe881135	-0.26575628
234	0xbb38ee1d	-0.0028218098
235	0x3d9a2e4b	0.07528361
236	0x3d1145a6	0.035466813
237	0xbdcad072	-0.09903039
238	0xbdee6439	-0.1164021
239	0xbde22ff2	-0.11044301
240	0xbd513a78	-0.05108115
241	0x3c5b3880	0.01338017
242	0xbe20c9f4	-0.15702039
243	0x3d1259cc	0.03573017
244	0xbd8d3e39	-0.06896634
245	0xbcb40eae	-0.021979656
246	0xbe74a4b6	-0.23890957
247	0x3c7b7e6d	0.0153499665
248	0xbde8b3ed	-0.11362443
249	0xbdea06e2	-0.11427094
250	0x3e817634	0.25285494
251	0x3e368655	0.17824681
252	0xbd555910	-0.05208689
253	0xbdade0e7	-0.08490162
254	0x3e31bc48	0.1735698
255	0xbd087ebc	-0.03332399

fc1.bias f4 [32]
0	0xbd02c00c	-0.03192143
1	0xbdf210bc	-0.11819598
2	0xbe9c6fde	-0.30554098
3	0xbdebb111	-0.11508382
4	0xbcd4e237	-0.025986774
5	0xbdd7f31c	-0.10544416
6	0x3b252fea	0.002520556
7	0x3ddfc0ed	0.109254695
8	0xbbaece6e	-0.005334667
9	0xbbf9d2a6	-0.007623988
10	0xb9ad61dc	-0.00033070042
11	0xbea96902	-0.33087927
12	0xbe0f8cad	-0.14018507
13	0x3d58b4bb	0.052906733
14	0xbdc944b0	-0.09827554
15	0xbe70d7ba	-0.23519793
16	0xbe11b27d	-0.14228244
17	0xbe07acef	-0.13249563
18	0xbdae9c8a	-0.08525951
19	0x3da523d2	0.08063473
20	0xbde3990f	-0.11113178
21	0x80151928	-1.93757e-39
22	0xbd919a13	-0.071094655
23	0xbd759400	-0.059955597
24	0xbccebf7f	-0.025237797
25	0x3cfdb035	0.030967811
26	0x803f9816	-5.840194e-39
27	0xbd1997e9	-0.03749839
28	0xbea5b384	-0.32363522
29	0xbaa7a610	-0.0012790579
30	0x3e896dd8	0.26841617
31	0xbe8bed92	-0.2732969

fc2.weight f4 [1, 32]
0	0x3b80a617	0.0039260495
1	0xbbafac0c	-0.0053610858
2	0xbc1ea375	-0.009682526
3	0xbbcaaa1e	-0.0061848303
4	0x3953df97	0.00020205822
5	0xbcff68e3	-0.031177944
6	0x3acb9384	0.0015531634
7	0x3d2bc3a1	0.041934613
8	0x3b6aa2f9	0.0035802706
9	0xbae5f0d6	-0.0017543088
10	0x3c94b3b1	0.01815209
11	0xbcc7a5fc	-0.02437114
12	0xbd15dc22	-0.036586888
13	0x3cb25921	0.021771016
14	0xbca65248	-0.020302907
15	0xbb316eae	-0.0027074027
16	0x3c80e314	0.01573328
17	0x3bffd37a	0.0078071924
18	0x3d81b2b6	0.063329145
19	0xbd1ed8ad	-0.038780857
20	0x39cfda9b	0.0003964499
21	0x381fc23e	3.8089456e-05
22	0x3cc9b427	0.024622036
23	0x3c938ba8	0.01801093
24	0xbb998485	-0.004684987
25	0x3d664d8d	0.056226302
26	0x80093a4b	-8.47431e-40
27	0xbd848030	-0.06469762
28	0x3870a1cc	5.7371144e-05
29	0x391ec499	0.00015141293
30	0x3ca63c65	0.02029247
31	0x3b81c724	0.003960507
